…
, max_seq_len=8192, depth_init=True, use_flex_attn=False, attn_mask_type='causal', eos_id=128001)
[titan] 2025-07-16 12:09:01,229 - root - INFO - Applied selective activation checkpointing to the model
[titan] 2025-07-16 12:09:01,686 - root - INFO - Applied FSDP to the model
[titan] 2025-07-16 12:09:01,877 - root - INFO - Vocab size: 128256
[3] > [33;01m/home/jeromeku/torchtitan/scripts/estimate/estimation.py[00m([36;01m148[00m)estimate_memory()
-> loss_fn [38;5;241m=[39m train_spec[38;5;241m.[39mbuild_loss_fn(job_config)
(Pdb++) torch.float32
(Pdb++) FSDPTransformer(
  (tok_embeddings): Embedding(128256, 4096)
  (layers): ModuleDict(
    (0): FSDPCheckpointWrapper(
      (_checkpoint_wrapped_module): TransformerBlock(
        (attention): Attention(
          (wq): Linear(in_features=4096, out_features=4096, bias=False)
          (wk): Linear(in_features=4096, out_features=1024, bias=False)
          (wv): Linear(in_features=4096, out_features=1024, bias=False)
          (wo): Linear(in_features=4096, out_features=4096, bias=False)
          (sdpa): ScaledDotProductAttention()
        )
        (feed_forward): FeedForward(
          (w1): Linear(in_features=4096, out_features=14336, bias=False)
          (w2): Linear(in_features=14336, out_features=4096, bias=False)
          (w3): Linear(in_features=4096, out_features=14336, bias=False)
        )
        (attention_norm): RMSNorm((4096,), eps=1e-05, elementwise_affine=True)
        (ffn_norm): RMSNorm((4096,), eps=1e-05, elementwise_affine=True)
      )
    )
    (1): FSDPCheckpointWrapper(
      (_checkpoint_wrapped_module): TransformerBlock(
        (attention): Attention(
          (wq): Linear(in_features=4096, out_features=4096, bias=False)
          (wk): Linear(in_features=4096, out_features=1024, bias=False)
          (wv): Linear(in_features=4096, out_features=1024, bias=False)
          (wo): Linear(in_features=4096, out_features=4096, bias=False)
          (sdpa): ScaledDotProductAttention()
        )
        (feed_forward): FeedForward(
          (w1): Linear(in_features=4096, out_features=14336, bias=False)
          (w2): Linear(in_features=14336, out_features=4096, bias=False)
          (w3): Linear(in_features=4096, out_features=14336, bias=False)
        )
        (attention_norm): RMSNorm((4096,), eps=1e-05, elementwise_affine=True)
        (ffn_norm): RMSNorm((4096,), eps=1e-05, elementwise_affine=True)
      )
    )
    (2): FSDPCheckpointWrapper(
      (_checkpoint_wrapped_module): TransformerBlock(
        (attention): Attention(
          (wq): Linear(in_features=4096, out_features=4096, bias=False)
          (wk): Linear(in_features=4096, out_features=1024, bias=False)
          (wv): Linear(in_features=4096, out_features=1024, bias=False)
          (wo): Linear(in_features=4096, out_features=4096, bias=False)
          (sdpa): ScaledDotProductAttention()
        )
        (feed_forward): FeedForward(
          (w1): Linear(in_features=4096, out_features=14336, bias=False)
          (w2): Linear(in_features=14336, out_features=4096, bias=False)
          (w3): Linear(in_features=4096, out_features=14336, bias=False)
        )
        (attention_norm): RMSNorm((4096,), eps=1e-05, elementwise_affine=True)
        (ffn_norm): RMSNorm((4096,), eps=1e-05, elementwise_affine=True)
      )
    )
    (3): FSDPCheckpointWrapper(
      (_checkpoint_wrapped_module): TransformerBlock(
        (attention): Attention(
          (wq): Linear(in_features=4096, out_features=4096, bias=False)
          (wk): Linear(in_features=4096, out_features=1024, bias=False)
          (wv): Linear(in_features=4096, out_features=1024, bias=False)
          (wo): Linear(in_features=4096, out_features=4096, bias=False)
          (sdpa): ScaledDotProductAttention()
        )
        (feed_forward): FeedForward(
          (w1): Linear(in_features=4096, out_features=14336, bias=False)
          (w2): Linear(in_features=14336, out_features=4096, bias=False)
          (w3): Linear(in_features=4096, out_features=14336, bias=False)
        )
        (attention_norm): RMSNorm((4096,), eps=1e-05, elementwise_affine=True)
        (ffn_norm): RMSNorm((4096,), eps=1e-05, elementwise_affine=True)
      )
    )
    (4): FSDPCheckpointWrapper(
      (_checkpoint_wrapped_module): TransformerBlock(
        (attention): Attention(
          (wq): Linear(in_features=4096, out_features=4096, bias=False)
          (wk): Linear(in_features=4096, out_features=1024, bias=False)
          (wv): Linear(in_features=4096, out_features=1024, bias=False)
          (wo): Linear(in_features=4096, out_features=4096, bias=False)
          (sdpa): ScaledDotProductAttention()
        )
        (feed_forward): FeedForward(
          (w1): Linear(in_features=4096, out_features=14336, bias=False)
          (w2): Linear(in_features=14336, out_features=4096, bias=False)
          (w3): Linear(in_features=4096, out_features=14336, bias=False)
        )
        (attention_norm): RMSNorm((4096,), eps=1e-05, elementwise_affine=True)
        (ffn_norm): RMSNorm((4096,), eps=1e-05, elementwise_affine=True)
      )
    )
    (5): FSDPCheckpointWrapper(
      (_checkpoint_wrapped_module): TransformerBlock(
        (attention): Attention(
          (wq): Linear(in_features=4096, out_features=4096, bias=False)
          (wk): Linear(in_features=4096, out_features=1024, bias=False)
          (wv): Linear(in_features=4096, out_features=1024, bias=False)
          (wo): Linear(in_features=4096, out_features=4096, bias=False)
          (sdpa): ScaledDotProductAttention()
        )
        (feed_forward): FeedForward(
          (w1): Linear(in_features=4096, out_features=14336, bias=False)
          (w2): Linear(in_features=14336, out_features=4096, bias=False)
          (w3): Linear(in_features=4096, out_features=14336, bias=False)
        )
        (attention_norm): RMSNorm((4096,), eps=1e-05, elementwise_affine=True)
        (ffn_norm): RMSNorm((4096,), eps=1e-05, elementwise_affine=True)
      )
    )
    (6): FSDPCheckpointWrapper(
      (_checkpoint_wrapped_module): TransformerBlock(
        (attention): Attention(
          (wq): Linear(in_features=4096, out_features=4096, bias=False)
          (wk): Linear(in_features=4096, out_features=1024, bias=False)
          (wv): Linear(in_features=4096, out_features=1024, bias=False)
          (wo): Linear(in_features=4096, out_features=4096, bias=False)
          (sdpa): ScaledDotProductAttention()
        )
        (feed_forward): FeedForward(
          (w1): Linear(in_features=4096, out_features=14336, bias=False)
          (w2): Linear(in_features=14336, out_features=4096, bias=False)
          (w3): Linear(in_features=4096, out_features=14336, bias=False)
        )
        (attention_norm): RMSNorm((4096,), eps=1e-05, elementwise_affine=True)
        (ffn_norm): RMSNorm((4096,), eps=1e-05, elementwise_affine=True)
      )
    )
    (7): FSDPCheckpointWrapper(
      (_checkpoint_wrapped_module): TransformerBlock(
        (attention): Attention(
          (wq): Linear(in_features=4096, out_features=4096, bias=False)
          (wk): Linear(in_features=4096, out_features=1024, bias=False)
          (wv): Linear(in_features=4096, out_features=1024, bias=False)
          (wo): Linear(in_features=4096, out_features=4096, bias=False)
          (sdpa): ScaledDotProductAttention()
        )
        (feed_forward): FeedForward(
          (w1): Linear(in_features=4096, out_features=14336, bias=False)
          (w2): Linear(in_features=14336, out_features=4096, bias=False)
          (w3): Linear(in_features=4096, out_features=14336, bias=False)
        )
        (attention_norm): RMSNorm((4096,), eps=1e-05, elementwise_affine=True)
        (ffn_norm): RMSNorm((4096,), eps=1e-05, elementwise_affine=True)
      )
    )
    (8): FSDPCheckpointWrapper(
      (_checkpoint_wrapped_module): TransformerBlock(
        (attention): Attention(
          (wq): Linear(in_features=4096, out_features=4096, bias=False)
          (wk): Linear(in_features=4096, out_features=1024, bias=False)
          (wv): Linear(in_features=4096, out_features=1024, bias=False)
          (wo): Linear(in_features=4096, out_features=4096, bias=False)
          (sdpa): ScaledDotProductAttention()
        )
        (feed_forward): FeedForward(
          (w1): Linear(in_features=4096, out_features=14336, bias=False)
          (w2): Linear(in_features=14336, out_features=4096, bias=False)
          (w3): Linear(in_features=4096, out_features=14336, bias=False)
        )
        (attention_norm): RMSNorm((4096,), eps=1e-05, elementwise_affine=True)
        (ffn_norm): RMSNorm((4096,), eps=1e-05, elementwise_affine=True)
      )
    )
    (9): FSDPCheckpointWrapper(
      (_checkpoint_wrapped_module): TransformerBlock(
        (attention): Attention(
          (wq): Linear(in_features=4096, out_features=4096, bias=False)
          (wk): Linear(in_features=4096, out_features=1024, bias=False)
          (wv): Linear(in_features=4096, out_features=1024, bias=False)
          (wo): Linear(in_features=4096, out_features=4096, bias=False)
          (sdpa): ScaledDotProductAttention()
        )
        (feed_forward): FeedForward(
          (w1): Linear(in_features=4096, out_features=14336, bias=False)
          (w2): Linear(in_features=14336, out_features=4096, bias=False)
          (w3): Linear(in_features=4096, out_features=14336, bias=False)
        )
        (attention_norm): RMSNorm((4096,), eps=1e-05, elementwise_affine=True)
        (ffn_norm): RMSNorm((4096,), eps=1e-05, elementwise_affine=True)
      )
    )
    (10): FSDPCheckpointWrapper(
      (_checkpoint_wrapped_module): TransformerBlock(
        (attention): Attention(
          (wq): Linear(in_features=4096, out_features=4096, bias=False)
          (wk): Linear(in_features=4096, out_features=1024, bias=False)
          (wv): Linear(in_features=4096, out_features=1024, bias=False)
          (wo): Linear(in_features=4096, out_features=4096, bias=False)
          (sdpa): ScaledDotProductAttention()
        )
        (feed_forward): FeedForward(
          (w1): Linear(in_features=4096, out_features=14336, bias=False)
          (w2): Linear(in_features=14336, out_features=4096, bias=False)
          (w3): Linear(in_features=4096, out_features=14336, bias=False)
        )
        (attention_norm): RMSNorm((4096,), eps=1e-05, elementwise_affine=True)
        (ffn_norm): RMSNorm((4096,), eps=1e-05, elementwise_affine=True)
      )
    )
    (11): FSDPCheckpointWrapper(
      (_checkpoint_wrapped_module): TransformerBlock(
        (attention): Attention(
          (wq): Linear(in_features=4096, out_features=4096, bias=False)
          (wk): Linear(in_features=4096, out_features=1024, bias=False)
          (wv): Linear(in_features=4096, out_features=1024, bias=False)
          (wo): Linear(in_features=4096, out_features=4096, bias=False)
          (sdpa): ScaledDotProductAttention()
        )
        (feed_forward): FeedForward(
          (w1): Linear(in_features=4096, out_features=14336, bias=False)
          (w2): Linear(in_features=14336, out_features=4096, bias=False)
          (w3): Linear(in_features=4096, out_features=14336, bias=False)
        )
        (attention_norm): RMSNorm((4096,), eps=1e-05, elementwise_affine=True)
        (ffn_norm): RMSNorm((4096,), eps=1e-05, elementwise_affine=True)
      )
    )
    (12): FSDPCheckpointWrapper(
      (_checkpoint_wrapped_module): TransformerBlock(
        (attention): Attention(
          (wq): Linear(in_features=4096, out_features=4096, bias=False)
          (wk): Linear(in_features=4096, out_features=1024, bias=False)
          (wv): Linear(in_features=4096, out_features=1024, bias=False)
          (wo): Linear(in_features=4096, out_features=4096, bias=False)
          (sdpa): ScaledDotProductAttention()
        )
        (feed_forward): FeedForward(
          (w1): Linear(in_features=4096, out_features=14336, bias=False)
          (w2): Linear(in_features=14336, out_features=4096, bias=False)
          (w3): Linear(in_features=4096, out_features=14336, bias=False)
        )
        (attention_norm): RMSNorm((4096,), eps=1e-05, elementwise_affine=True)
        (ffn_norm): RMSNorm((4096,), eps=1e-05, elementwise_affine=True)
      )
    )
    (13): FSDPCheckpointWrapper(
      (_checkpoint_wrapped_module): TransformerBlock(
        (attention): Attention(
          (wq): Linear(in_features=4096, out_features=4096, bias=False)
          (wk): Linear(in_features=4096, out_features=1024, bias=False)
          (wv): Linear(in_features=4096, out_features=1024, bias=False)
          (wo): Linear(in_features=4096, out_features=4096, bias=False)
          (sdpa): ScaledDotProductAttention()
        )
        (feed_forward): FeedForward(
          (w1): Linear(in_features=4096, out_features=14336, bias=False)
          (w2): Linear(in_features=14336, out_features=4096, bias=False)
          (w3): Linear(in_features=4096, out_features=14336, bias=False)
        )
        (attention_norm): RMSNorm((4096,), eps=1e-05, elementwise_affine=True)
        (ffn_norm): RMSNorm((4096,), eps=1e-05, elementwise_affine=True)
      )
    )
    (14): FSDPCheckpointWrapper(
      (_checkpoint_wrapped_module): TransformerBlock(
        (attention): Attention(
          (wq): Linear(in_features=4096, out_features=4096, bias=False)
          (wk): Linear(in_features=4096, out_features=1024, bias=False)
          (wv): Linear(in_features=4096, out_features=1024, bias=False)
          (wo): Linear(in_features=4096, out_features=4096, bias=False)
          (sdpa): ScaledDotProductAttention()
        )
        (feed_forward): FeedForward(
          (w1): Linear(in_features=4096, out_features=14336, bias=False)
          (w2): Linear(in_features=14336, out_features=4096, bias=False)
          (w3): Linear(in_features=4096, out_features=14336, bias=False)
        )
        (attention_norm): RMSNorm((4096,), eps=1e-05, elementwise_affine=True)
        (ffn_norm): RMSNorm((4096,), eps=1e-05, elementwise_affine=True)
      )
    )
    (15): FSDPCheckpointWrapper(
      (_checkpoint_wrapped_module): TransformerBlock(
        (attention): Attention(
          (wq): Linear(in_features=4096, out_features=4096, bias=False)
          (wk): Linear(in_features=4096, out_features=1024, bias=False)
          (wv): Linear(in_features=4096, out_features=1024, bias=False)
          (wo): Linear(in_features=4096, out_features=4096, bias=False)
          (sdpa): ScaledDotProductAttention()
        )
        (feed_forward): FeedForward(
          (w1): Linear(in_features=4096, out_features=14336, bias=False)
          (w2): Linear(in_features=14336, out_features=4096, bias=False)
          (w3): Linear(in_features=4096, out_features=14336, bias=False)
        )
        (attention_norm): RMSNorm((4096,), eps=1e-05, elementwise_affine=True)
        (ffn_norm): RMSNorm((4096,), eps=1e-05, elementwise_affine=True)
      )
    )
    (16): FSDPCheckpointWrapper(
      (_checkpoint_wrapped_module): TransformerBlock(
        (attention): Attention(
          (wq): Linear(in_features=4096, out_features=4096, bias=False)
          (wk): Linear(in_features=4096, out_features=1024, bias=False)
          (wv): Linear(in_features=4096, out_features=1024, bias=False)
          (wo): Linear(in_features=4096, out_features=4096, bias=False)
          (sdpa): ScaledDotProductAttention()
        )
        (feed_forward): FeedForward(
          (w1): Linear(in_features=4096, out_features=14336, bias=False)
          (w2): Linear(in_features=14336, out_features=4096, bias=False)
          (w3): Linear(in_features=4096, out_features=14336, bias=False)
        )
        (attention_norm): RMSNorm((4096,), eps=1e-05, elementwise_affine=True)
        (ffn_norm): RMSNorm((4096,), eps=1e-05, elementwise_affine=True)
      )
    )
    (17): FSDPCheckpointWrapper(
      (_checkpoint_wrapped_module): TransformerBlock(
        (attention): Attention(
          (wq): Linear(in_features=4096, out_features=4096, bias=False)
          (wk): Linear(in_features=4096, out_features=1024, bias=False)
          (wv): Linear(in_features=4096, out_features=1024, bias=False)
          (wo): Linear(in_features=4096, out_features=4096, bias=False)
          (sdpa): ScaledDotProductAttention()
        )
        (feed_forward): FeedForward(
          (w1): Linear(in_features=4096, out_features=14336, bias=False)
          (w2): Linear(in_features=14336, out_features=4096, bias=False)
          (w3): Linear(in_features=4096, out_features=14336, bias=False)
        )
        (attention_norm): RMSNorm((4096,), eps=1e-05, elementwise_affine=True)
        (ffn_norm): RMSNorm((4096,), eps=1e-05, elementwise_affine=True)
      )
    )
    (18): FSDPCheckpointWrapper(
      (_checkpoint_wrapped_module): TransformerBlock(
        (attention): Attention(
          (wq): Linear(in_features=4096, out_features=4096, bias=False)
          (wk): Linear(in_features=4096, out_features=1024, bias=False)
          (wv): Linear(in_features=4096, out_features=1024, bias=False)
          (wo): Linear(in_features=4096, out_features=4096, bias=False)
          (sdpa): ScaledDotProductAttention()
        )
        (feed_forward): FeedForward(
          (w1): Linear(in_features=4096, out_features=14336, bias=False)
          (w2): Linear(in_features=14336, out_features=4096, bias=False)
          (w3): Linear(in_features=4096, out_features=14336, bias=False)
        )
        (attention_norm): RMSNorm((4096,), eps=1e-05, elementwise_affine=True)
        (ffn_norm): RMSNorm((4096,), eps=1e-05, elementwise_affine=True)
      )
    )
    (19): FSDPCheckpointWrapper(
      (_checkpoint_wrapped_module): TransformerBlock(
        (attention): Attention(
          (wq): Linear(in_features=4096, out_features=4096, bias=False)
          (wk): Linear(in_features=4096, out_features=1024, bias=False)
          (wv): Linear(in_features=4096, out_features=1024, bias=False)
          (wo): Linear(in_features=4096, out_features=4096, bias=False)
          (sdpa): ScaledDotProductAttention()
        )
        (feed_forward): FeedForward(
          (w1): Linear(in_features=4096, out_features=14336, bias=False)
          (w2): Linear(in_features=14336, out_features=4096, bias=False)
          (w3): Linear(in_features=4096, out_features=14336, bias=False)
        )
        (attention_norm): RMSNorm((4096,), eps=1e-05, elementwise_affine=True)
        (ffn_norm): RMSNorm((4096,), eps=1e-05, elementwise_affine=True)
      )
    )
    (20): FSDPCheckpointWrapper(
      (_checkpoint_wrapped_module): TransformerBlock(
        (attention): Attention(
          (wq): Linear(in_features=4096, out_features=4096, bias=False)
          (wk): Linear(in_features=4096, out_features=1024, bias=False)
          (wv): Linear(in_features=4096, out_features=1024, bias=False)
          (wo): Linear(in_features=4096, out_features=4096, bias=False)
          (sdpa): ScaledDotProductAttention()
        )
        (feed_forward): FeedForward(
          (w1): Linear(in_features=4096, out_features=14336, bias=False)
          (w2): Linear(in_features=14336, out_features=4096, bias=False)
          (w3): Linear(in_features=4096, out_features=14336, bias=False)
        )
        (attention_norm): RMSNorm((4096,), eps=1e-05, elementwise_affine=True)
        (ffn_norm): RMSNorm((4096,), eps=1e-05, elementwise_affine=True)
      )
    )
    (21): FSDPCheckpointWrapper(
      (_checkpoint_wrapped_module): TransformerBlock(
        (attention): Attention(
          (wq): Linear(in_features=4096, out_features=4096, bias=False)
          (wk): Linear(in_features=4096, out_features=1024, bias=False)
          (wv): Linear(in_features=4096, out_features=1024, bias=False)
          (wo): Linear(in_features=4096, out_features=4096, bias=False)
          (sdpa): ScaledDotProductAttention()
        )
        (feed_forward): FeedForward(
          (w1): Linear(in_features=4096, out_features=14336, bias=False)
          (w2): Linear(in_features=14336, out_features=4096, bias=False)
          (w3): Linear(in_features=4096, out_features=14336, bias=False)
        )
        (attention_norm): RMSNorm((4096,), eps=1e-05, elementwise_affine=True)
        (ffn_norm): RMSNorm((4096,), eps=1e-05, elementwise_affine=True)
      )
    )
    (22): FSDPCheckpointWrapper(
      (_checkpoint_wrapped_module): TransformerBlock(
        (attention): Attention(
          (wq): Linear(in_features=4096, out_features=4096, bias=False)
          (wk): Linear(in_features=4096, out_features=1024, bias=False)
          (wv): Linear(in_features=4096, out_features=1024, bias=False)
          (wo): Linear(in_features=4096, out_features=4096, bias=False)
          (sdpa): ScaledDotProductAttention()
        )
        (feed_forward): FeedForward(
          (w1): Linear(in_features=4096, out_features=14336, bias=False)
          (w2): Linear(in_features=14336, out_features=4096, bias=False)
          (w3): Linear(in_features=4096, out_features=14336, bias=False)
        )
        (attention_norm): RMSNorm((4096,), eps=1e-05, elementwise_affine=True)
        (ffn_norm): RMSNorm((4096,), eps=1e-05, elementwise_affine=True)
      )
    )
    (23): FSDPCheckpointWrapper(
      (_checkpoint_wrapped_module): TransformerBlock(
        (attention): Attention(
          (wq): Linear(in_features=4096, out_features=4096, bias=False)
          (wk): Linear(in_features=4096, out_features=1024, bias=False)
          (wv): Linear(in_features=4096, out_features=1024, bias=False)
          (wo): Linear(in_features=4096, out_features=4096, bias=False)
          (sdpa): ScaledDotProductAttention()
        )
        (feed_forward): FeedForward(
          (w1): Linear(in_features=4096, out_features=14336, bias=False)
          (w2): Linear(in_features=14336, out_features=4096, bias=False)
          (w3): Linear(in_features=4096, out_features=14336, bias=False)
        )
        (attention_norm): RMSNorm((4096,), eps=1e-05, elementwise_affine=True)
        (ffn_norm): RMSNorm((4096,), eps=1e-05, elementwise_affine=True)
      )
    )
    (24): FSDPCheckpointWrapper(
      (_checkpoint_wrapped_module): TransformerBlock(
        (attention): Attention(
          (wq): Linear(in_features=4096, out_features=4096, bias=False)
          (wk): Linear(in_features=4096, out_features=1024, bias=False)
          (wv): Linear(in_features=4096, out_features=1024, bias=False)
          (wo): Linear(in_features=4096, out_features=4096, bias=False)
          (sdpa): ScaledDotProductAttention()
        )
        (feed_forward): FeedForward(
          (w1): Linear(in_features=4096, out_features=14336, bias=False)
          (w2): Linear(in_features=14336, out_features=4096, bias=False)
          (w3): Linear(in_features=4096, out_features=14336, bias=False)
        )
        (attention_norm): RMSNorm((4096,), eps=1e-05, elementwise_affine=True)
        (ffn_norm): RMSNorm((4096,), eps=1e-05, elementwise_affine=True)
      )
    )
    (25): FSDPCheckpointWrapper(
      (_checkpoint_wrapped_module): TransformerBlock(
        (attention): Attention(
          (wq): Linear(in_features=4096, out_features=4096, bias=False)
          (wk): Linear(in_features=4096, out_features=1024, bias=False)
          (wv): Linear(in_features=4096, out_features=1024, bias=False)
          (wo): Linear(in_features=4096, out_features=4096, bias=False)
          (sdpa): ScaledDotProductAttention()
        )
        (feed_forward): FeedForward(
          (w1): Linear(in_features=4096, out_features=14336, bias=False)
          (w2): Linear(in_features=14336, out_features=4096, bias=False)
          (w3): Linear(in_features=4096, out_features=14336, bias=False)
        )
        (attention_norm): RMSNorm((4096,), eps=1e-05, elementwise_affine=True)
        (ffn_norm): RMSNorm((4096,), eps=1e-05, elementwise_affine=True)
      )
    )
    (26): FSDPCheckpointWrapper(
      (_checkpoint_wrapped_module): TransformerBlock(
        (attention): Attention(
          (wq): Linear(in_features=4096, out_features=4096, bias=False)
          (wk): Linear(in_features=4096, out_features=1024, bias=False)
          (wv): Linear(in_features=4096, out_features=1024, bias=False)
          (wo): Linear(in_features=4096, out_features=4096, bias=False)
          (sdpa): ScaledDotProductAttention()
        )
        (feed_forward): FeedForward(
          (w1): Linear(in_features=4096, out_features=14336, bias=False)
          (w2): Linear(in_features=14336, out_features=4096, bias=False)
          (w3): Linear(in_features=4096, out_features=14336, bias=False)
        )
        (attention_norm): RMSNorm((4096,), eps=1e-05, elementwise_affine=True)
        (ffn_norm): RMSNorm((4096,), eps=1e-05, elementwise_affine=True)
      )
    )
    (27): FSDPCheckpointWrapper(
      (_checkpoint_wrapped_module): TransformerBlock(
        (attention): Attention(
          (wq): Linear(in_features=4096, out_features=4096, bias=False)
          (wk): Linear(in_features=4096, out_features=1024, bias=False)
          (wv): Linear(in_features=4096, out_features=1024, bias=False)
          (wo): Linear(in_features=4096, out_features=4096, bias=False)
          (sdpa): ScaledDotProductAttention()
        )
        (feed_forward): FeedForward(
          (w1): Linear(in_features=4096, out_features=14336, bias=False)
          (w2): Linear(in_features=14336, out_features=4096, bias=False)
          (w3): Linear(in_features=4096, out_features=14336, bias=False)
        )
        (attention_norm): RMSNorm((4096,), eps=1e-05, elementwise_affine=True)
        (ffn_norm): RMSNorm((4096,), eps=1e-05, elementwise_affine=True)
      )
    )
    (28): FSDPCheckpointWrapper(
      (_checkpoint_wrapped_module): TransformerBlock(
        (attention): Attention(
          (wq): Linear(in_features=4096, out_features=4096, bias=False)
          (wk): Linear(in_features=4096, out_features=1024, bias=False)
          (wv): Linear(in_features=4096, out_features=1024, bias=False)
          (wo): Linear(in_features=4096, out_features=4096, bias=False)
          (sdpa): ScaledDotProductAttention()
        )
        (feed_forward): FeedForward(
          (w1): Linear(in_features=4096, out_features=14336, bias=False)
          (w2): Linear(in_features=14336, out_features=4096, bias=False)
          (w3): Linear(in_features=4096, out_features=14336, bias=False)
        )
        (attention_norm): RMSNorm((4096,), eps=1e-05, elementwise_affine=True)
        (ffn_norm): RMSNorm((4096,), eps=1e-05, elementwise_affine=True)
      )
    )
    (29): FSDPCheckpointWrapper(
      (_checkpoint_wrapped_module): TransformerBlock(
        (attention): Attention(
          (wq): Linear(in_features=4096, out_features=4096, bias=False)
          (wk): Linear(in_features=4096, out_features=1024, bias=False)
          (wv): Linear(in_features=4096, out_features=1024, bias=False)
          (wo): Linear(in_features=4096, out_features=4096, bias=False)
          (sdpa): ScaledDotProductAttention()
        )
        (feed_forward): FeedForward(
          (w1): Linear(in_features=4096, out_features=14336, bias=False)
          (w2): Linear(in_features=14336, out_features=4096, bias=False)
          (w3): Linear(in_features=4096, out_features=14336, bias=False)
        )
        (attention_norm): RMSNorm((4096,), eps=1e-05, elementwise_affine=True)
        (ffn_norm): RMSNorm((4096,), eps=1e-05, elementwise_affine=True)
      )
    )
    (30): FSDPCheckpointWrapper(
      (_checkpoint_wrapped_module): TransformerBlock(
        (attention): Attention(
          (wq): Linear(in_features=4096, out_features=4096, bias=False)
          (wk): Linear(in_features=4096, out_features=1024, bias=False)
          (wv): Linear(in_features=4096, out_features=1024, bias=False)
          (wo): Linear(in_features=4096, out_features=4096, bias=False)
          (sdpa): ScaledDotProductAttention()
        )
        (feed_forward): FeedForward(
          (w1): Linear(in_features=4096, out_features=14336, bias=False)
          (w2): Linear(in_features=14336, out_features=4096, bias=False)
          (w3): Linear(in_features=4096, out_features=14336, bias=False)
        )
        (attention_norm): RMSNorm((4096,), eps=1e-05, elementwise_affine=True)
        (ffn_norm): RMSNorm((4096,), eps=1e-05, elementwise_affine=True)
      )
    )
    (31): FSDPCheckpointWrapper(
      (_checkpoint_wrapped_module): TransformerBlock(
        (attention): Attention(
          (wq): Linear(in_features=4096, out_features=4096, bias=False)
          (wk): Linear(in_features=4096, out_features=1024, bias=False)
          (wv): Linear(in_features=4096, out_features=1024, bias=False)
          (wo): Linear(in_features=4096, out_features=4096, bias=False)
          (sdpa): ScaledDotProductAttention()
        )
        (feed_forward): FeedForward(
          (w1): Linear(in_features=4096, out_features=14336, bias=False)
          (w2): Linear(in_features=14336, out_features=4096, bias=False)
          (w3): Linear(in_features=4096, out_features=14336, bias=False)
        )
        (attention_norm): RMSNorm((4096,), eps=1e-05, elementwise_affine=True)
        (ffn_norm): RMSNorm((4096,), eps=1e-05, elementwise_affine=True)
      )
    )
  )
  (norm): RMSNorm((4096,), eps=1e-05, elementwise_affine=True)
  (output): Linear(in_features=4096, out_features=128256, bias=False)
)
(Pdb++) (Pdb++) 291
(Pdb++) 291
(Pdb++) (Pdb++) 291
(Pdb++) Peak Memory at iter: 0
========  ===============  =================  ========  ==============  ================  ============  ==========  ============  ================  ==========  ========  ============
Device    Sharded Param    Unsharded Param    Buffer    Sharded Grad    Unsharded Grad    Activation    Temp        All Gather    Reduce Scatter    OptState    Inputs    Total
…
